…
The test image shapes is (224, 224, 3)
The test data set includes the following labels: 
['MildDemented', 'ModerateDemented', 'NonDemented', 'VeryMildDemented']
test data set labels frequencies:
MildDemented: 179 (absolute), 0.14 (relative).
ModerateDemented: 12 (absolute), 0.009 (relative).
NonDemented: 640 (absolute), 0.5 (relative).
VeryMildDemented: 448 (absolute), 0.35 (relative).
Model: "sequential"
_________________________________________________________________
Layer (type)                 Output Shape              Param #   
=================================================================
conv2d (Conv2D)              (None, 222, 222, 32)      896       
_________________________________________________________________
max_pooling2d (MaxPooling2D) (None, 111, 111, 32)      0         
_________________________________________________________________
conv2d_1 (Conv2D)            (None, 109, 109, 64)      18496     
_________________________________________________________________
max_pooling2d_1 (MaxPooling2 (None, 54, 54, 64)        0         
_________________________________________________________________
conv2d_2 (Conv2D)            (None, 52, 52, 128)       73856     
_________________________________________________________________
max_pooling2d_2 (MaxPooling2 (None, 26, 26, 128)       0         
_________________________________________________________________
conv2d_3 (Conv2D)            (None, 24, 24, 128)       147584    
_________________________________________________________________
max_pooling2d_3 (MaxPooling2 (None, 12, 12, 128)       0         
_________________________________________________________________
flatten (Flatten)            (None, 18432)             0         
_________________________________________________________________
dense (Dense)                (None, 128)               2359424   
_________________________________________________________________
dense_1 (Dense)              (None, 4)                 516       
=================================================================
Total params: 2,600,772
Trainable params: 2,600,772
Non-trainable params: 0
_________________________________________________________________
Epoch 1/40
  1/204 [..............................] - ETA: 0s - loss: 1.3882 - categorical_accuracy: 0.2750 - multiclass_AUC: 0.5019
…
